…
/usr/local/lib/python2.7/site-packages/keras/backend/theano_backend.py:1890: UserWarning: ['filter_dilation'] are now deprecated in `tensor.nnet.abstract_conv.conv2d` interface and will be ignored.
  filter_dilation=dilation_rate)
agegender_train.py:56: UserWarning: Update your `Conv2D` call to the Keras 2 API: `Conv2D(128, (3, 3))`
  model.add(Convolution2D(128, 3, 3))
_________________________________________________________________
Layer (type)                 Output Shape              Param #   
=================================================================
input_1 (InputLayer)         (None, 32, 32, 3)         0         
_________________________________________________________________
conv2d_1 (Conv2D)            (None, 32, 32, 96)        2688      
_________________________________________________________________
activation_1 (Activation)    (None, 32, 32, 96)        0         
_________________________________________________________________
conv2d_2 (Conv2D)            (None, 30, 30, 128)       110720    
_________________________________________________________________
activation_2 (Activation)    (None, 30, 30, 128)       0         
_________________________________________________________________
dropout_1 (Dropout)          (None, 30, 30, 128)       0         
_________________________________________________________________
flatten_1 (Flatten)          (None, 115200)            0         
_________________________________________________________________
dense_1 (Dense)              (None, 1024)              117965824 
_________________________________________________________________
activation_3 (Activation)    (None, 1024)              0         
_________________________________________________________________
dropout_2 (Dropout)          (None, 1024)              0         
_________________________________________________________________
dense_2 (Dense)              (None, 16)                16400     
_________________________________________________________________
activation_4 (Activation)    (None, 16)                0         
=================================================================
Total params: 118,095,632
Trainable params: 118,095,632
Non-trainable params: 0
_________________________________________________________________
Found 8617 images belonging to 16 classes.
Found 2872 images belonging to 16 classes.
Epoch 1/50
 22/679 [..............................] - ETA: 1514s - loss: 13.6456 - acc: 0.1136^C^CTraceback (most recent call last):
…
