makuo:yolo-keras-face-detection abars$ python agegender_train.py 
INFO:plaidml:Opening device "amd_radeon_hd_-_firepro_d300_compute_engine.1"
_________________________________________________________________
Layer (type)                 Output Shape              Param #   
=================================================================
image_array (Conv2D)         (None, 64, 64, 16)        2368      
_________________________________________________________________
batch_normalization_1 (Batch (None, 64, 64, 16)        64        
_________________________________________________________________
conv2d_1 (Conv2D)            (None, 64, 64, 16)        12560     
_________________________________________________________________
batch_normalization_2 (Batch (None, 64, 64, 16)        64        
_________________________________________________________________
activation_1 (Activation)    (None, 64, 64, 16)        0         
_________________________________________________________________
average_pooling2d_1 (Average (None, 32, 32, 16)        0         
_________________________________________________________________
dropout_1 (Dropout)          (None, 32, 32, 16)        0         
_________________________________________________________________
conv2d_2 (Conv2D)            (None, 32, 32, 32)        12832     
_________________________________________________________________
batch_normalization_3 (Batch (None, 32, 32, 32)        128       
_________________________________________________________________
conv2d_3 (Conv2D)            (None, 32, 32, 32)        25632     
_________________________________________________________________
batch_normalization_4 (Batch (None, 32, 32, 32)        128       
_________________________________________________________________
activation_2 (Activation)    (None, 32, 32, 32)        0         
_________________________________________________________________
average_pooling2d_2 (Average (None, 16, 16, 32)        0         
_________________________________________________________________
dropout_2 (Dropout)          (None, 16, 16, 32)        0         
_________________________________________________________________
conv2d_4 (Conv2D)            (None, 16, 16, 64)        18496     
_________________________________________________________________
batch_normalization_5 (Batch (None, 16, 16, 64)        256       
_________________________________________________________________
conv2d_5 (Conv2D)            (None, 16, 16, 64)        36928     
_________________________________________________________________
batch_normalization_6 (Batch (None, 16, 16, 64)        256       
_________________________________________________________________
activation_3 (Activation)    (None, 16, 16, 64)        0         
_________________________________________________________________
average_pooling2d_3 (Average (None, 8, 8, 64)          0         
_________________________________________________________________
dropout_3 (Dropout)          (None, 8, 8, 64)          0         
_________________________________________________________________
conv2d_6 (Conv2D)            (None, 8, 8, 128)         73856     
_________________________________________________________________
batch_normalization_7 (Batch (None, 8, 8, 128)         512       
_________________________________________________________________
conv2d_7 (Conv2D)            (None, 8, 8, 128)         147584    
_________________________________________________________________
batch_normalization_8 (Batch (None, 8, 8, 128)         512       
_________________________________________________________________
activation_4 (Activation)    (None, 8, 8, 128)         0         
_________________________________________________________________
average_pooling2d_4 (Average (None, 4, 4, 128)         0         
_________________________________________________________________
dropout_4 (Dropout)          (None, 4, 4, 128)         0         
_________________________________________________________________
conv2d_8 (Conv2D)            (None, 4, 4, 256)         295168    
_________________________________________________________________
batch_normalization_9 (Batch (None, 4, 4, 256)         1024      
_________________________________________________________________
conv2d_9 (Conv2D)            (None, 4, 4, 16)          36880     
_________________________________________________________________
global_average_pooling2d_1 ( (None, 16)                0         
_________________________________________________________________
predictions (Activation)     (None, 16)                0         
=================================================================
Total params: 665,248
Trainable params: 663,776
Non-trainable params: 1,472
_________________________________________________________________
Found 8617 images belonging to 16 classes.
Found 2872 images belonging to 16 classes.
Epoch 1/50
INFO:plaidml:Analyzing Ops: 148 of 1198 operations complete
INFO:plaidml:Analyzing Ops: 345 of 1198 operations complete
…
